

THE FOLLOWING DESCRIBES THE MODEL ARCHITECTURE AND HYPER-PARAMETERS:

_________________________________________________________________
Layer (type)                 Output Shape              Param #   
=================================================================
conv2d_1 (Conv2D)            (None, 128, 62, 62)       3584      
_________________________________________________________________
batch_normalization_1 (Batch (None, 128, 62, 62)       248       
_________________________________________________________________
conv2d_2 (Conv2D)            (None, 128, 60, 60)       147584    
_________________________________________________________________
max_pooling2d_1 (MaxPooling2 (None, 128, 30, 30)       0         
_________________________________________________________________
batch_normalization_2 (Batch (None, 128, 30, 30)       120       
_________________________________________________________________
conv2d_3 (Conv2D)            (None, 128, 28, 28)       147584    
_________________________________________________________________
max_pooling2d_2 (MaxPooling2 (None, 128, 14, 14)       0         
_________________________________________________________________
batch_normalization_3 (Batch (None, 128, 14, 14)       56        
_________________________________________________________________
conv2d_4 (Conv2D)            (None, 128, 12, 12)       147584    
_________________________________________________________________
max_pooling2d_3 (MaxPooling2 (None, 128, 6, 6)         0         
_________________________________________________________________
batch_normalization_4 (Batch (None, 128, 6, 6)         24        
_________________________________________________________________
conv2d_5 (Conv2D)            (None, 128, 4, 4)         147584    
_________________________________________________________________
max_pooling2d_4 (MaxPooling2 (None, 128, 2, 2)         0         
_________________________________________________________________
flatten_1 (Flatten)          (None, 512)               0         
_________________________________________________________________
dropout_1 (Dropout)          (None, 512)               0         
_________________________________________________________________
dense_1 (Dense)              (None, 500)               256500    
_________________________________________________________________
dropout_2 (Dropout)          (None, 500)               0         
_________________________________________________________________
dense_2 (Dense)              (None, 100)               50100     
_________________________________________________________________
dropout_3 (Dropout)          (None, 100)               0         
_________________________________________________________________
dense_3 (Dense)              (None, 9)                 909       
=================================================================
Total params: 901,877
Trainable params: 901,653
Non-trainable params: 224
_________________________________________________________________

OPTIMIZER USED: Adam (lr = 0.001; the default lr from "Adam: A Method for Stochastic Optimization" by Kingma et al.)
BATCH_SIZE for Training: 60
Epochs = 150 (90s per epoch)

INPUT SHAPE: (3, 64, 64) [channels first]
…
